android_app/assets/models/best.pth (torch, 947245 bytes, 176 tensors)

dafam.level1_0.conv.weight f4 [32, 3, 3, 3]
00000000: 5f0e 0f00 0e3a 0600 481c 0c00 544f 1500
00000010: 9ddc 0b00 19b1 1080 4b00 0400 85e1 0d00
00000020: c671 1200 cf0e 0100 b37c 0080 ee74 1180
00000030: c83c 0f00 51e9 0b80 74c4 0e00 68f7 0a80
00000040: db60 0c00 9967 0c80 f431 0c80 dd07 0f00
00000050: 8434 0d00 1543 0c00 45a7 0c00 f3f7 1080
00000060: 32f5 1100 50ba 0b00 3208 1200 4748 ac3c
00000070: 792b 123e 7ad5 8cbd 808f 63be bb58 a93e
00000080: c3ce 20be e3f8 0bbe 884c 723e 09f3 a3bd
00000090: 1294 293d 0cfb 2c3e 8759 5dbd b3d9 81be
000000a0: b176 a63e db2d 33be 8772 40be 71a1 5f3e
000000b0: 796d bbbd 0c30 b23c 9759 923d 7f31 e7bd
000000c0: 0368 30be d64d 7c3e 7371 65be 74f4 3a3c
000000d0: d0ce 8d3e 9e0d e9bc fd7b a6bc 0ab9 513c
000000e0: 1e04 233c 1e96 8ebc adcd 0a3d adf2 e83c
000000f0: e7cd 87bc 531a 963d fc07 943d 5125 0239
00000100: 1fbb 0e3d 7b5d 273d d937 de3b 6242 843d
00000110: 6605 8a3d 1ccd a03b 09b5 f63d b443 ed3d
00000120: d092 95bb 77da 9f3b 6130 51bb 8fe5 40bb
00000130: 966c aa3c ecd8 5a3c f2f3 643b f66b 773d
00000140: 7d18 683d 7ae7 4c3a af21 e13a 6ee5 3a3b
00000150: 4d7c f5b6 2475 013b dcc8 563b d185 02bb
00000160: dea4 a7b9 2ff8 833a f1fd 3a39 dbcc f93a
00000170: 0415 3a3b 4816 b5ba 85a6 863a d11a 263b
00000180: 99ea 8ebb 0e09 c3ba abde 8139 5879 dabb
00000190: 07b7 ddbb ca87 8ebb b410 f1bb 81b9 82bb
000001a0: 3660 21bb 8fba 4dbc 64a8 08bc 96ba 03bc
000001b0: 123b 0e80 c1a2 0080 e1f6 0c80 70fa 0f80
000001c0: c7e2 0d80 6335 0f80 94a6 0c80 d526 1280
000001d0: cf9b 0500 9750 0c80 9003 0680 9471 0600
000001e0: 5371 0500 a9f8 0e80 321c 0f80 65a4 0c00
000001f0: f5cb 0d80 4290 1280 240d 0600 b244 0f80
00000200: fcc9 0e80 2293 0e80 8104 0f80 4c66 0c00
00000210: e5cd 0b00 4a48 0c00 473e 0c80 313c 0a00
00000220: d3a7 0680 7518 0c00 cc31 0a00 f32c 0280
00000230: d670 0800 1409 0500 da96 0500 edf8 0600
00000240: 99c5 0280 f7c5 0980 3c24 0580 721e 0980
00000250: 5d26 0500 eeb3 0000 9ac8 0500 2cdc 0200
00000260: b701 0b00 f407 0600 7bfb 0080 90be 0100
00000270: 27f1 0800 4c5d 0300 781f 0b80 532c 0300
00000280: ce3c 0900 116b 0180 3a6f b53c 8029 923e
00000290: ef18 f03d 912f ffbc cbb9 b1be be22 abbe
000002a0: 45b4 053e e0c2 c33c 38da 603e bdf7 b03d
000002b0: 4d31 a23e 44d4 113e 1a52 b43c 1027 b2be
000002c0: ecfa 89be 5630 ce3d 1f1d 9dbb 0867 903e
000002d0: 4d2f 03be b847 5e3e 7ea8 e1ba ec3b 973b
000002e0: 7d9f 50be cba3 55be 34ee b03a 749d babc
000002f0: f953 4a3e ac1b b43d 38ce 30b8 86b7 97bc
00000300: 9329 d63d 8afd 923d 85d3 6f3d 62fb dabe
00000310: 3a51 97bd 71ea 7ab9 a577 093d 3f53 e73c
00000320: 5d7e 60bb cf79 453a c302 383d 859d d23c
00000330: a505 06bf 84cc c3bd 7fce 8abc 6d07 56bd
00000340: 23e6 323d fe94 0a3d b05c 8b3b 8aa4 9d3d
00000350: 5442 873c baa3 ccbe 72b4 9bbc 6cc8 1dbd
00000360: 1f91 88be 8ca5 3bbc fe3b 603e 5801 fdbe
00000370: b128 023d e420 053f 6c7d a6be 47a1 21bd
00000380: 479a b33e 41ed febe 1c68 97bc 71e8 ff3e
00000390: c188 46bf 2b41 7a3d 08d8 323f ce6a 16bf
000003a0: fed6 fb3c b797 173f 5ca0 24be e49b b5bc
000003b0: 43f0 153e 827e a9be 13d2 6ebc daff a53e
000003c0: be3f b3bd ba1c 2bbd fd5e 243e 1bc1 ec3d
000003d0: 9c8d 36be 2cdb c03d 1c1a 983e 5efa c9be
000003e0: 565d 473e 8c67 ff3d 4251 64be 16ca b73d
000003f0: a840 013e 31da 8cbe fc80 243d 1701 aa3e
1.382688e-39 5.71839e-40 1.112171e-39 1.957003e-39 1.089332e-39 -1.532899e-39 3.67447e-40 1.274763e-39
1.693853e-39 9.7148e-41 -4.4734e-41 -1.60315e-39 1.399337e-39 -1.093889e-39 1.356171e-39 -1.007108e-39
1.136771e-39 -1.13919e-39 -1.119946e-39 1.380353e-39 1.2127e-39 1.12609e-39 1.162031e-39 -1.558315e-39
1.649163e-39 1.077027e-39 1.655979e-39 0.021030558 0.14274396 -0.06876655 -0.2222271 0.33075508
-0.15703873 -0.13669161 0.23662007 -0.0800534 0.041400976 0.16892642 -0.054040458 -0.25361404
0.3251243 -0.17497961 -0.18793689 0.21838929 -0.091517396 0.021751426 0.07145994 -0.112887375
-0.17227177 0.24639067 -0.22406559 0.011410821 0.27696848 -0.028448876 -0.020322794 0.012800464
0.009949712 -0.017405566 0.033887554 0.02843603 -0.016577674 0.0732924 0.072280854 0.00012411668
0.03484642 0.040860634 0.00678156 0.06457974 0.06739311 0.0049072634 0.120462485 0.11585179
-0.0045646206 0.004878338 -0.0031919705 -0.0029433703 0.020803731 0.013357382 0.0034935442 0.060405694
0.05666398 0.0007816475 0.0017176176 0.0028518098 -7.3160395e-06 0.001975366 0.003277353 -0.0019916187
-0.00031975558 0.0010068471 0.00017832943 0.0019058244 0.0028393874 -0.0013815844 0.0010273015 0.0025345574
-0.0043614623 -0.0014880018 0.00024770698 -0.0066672973 -0.0067662033 -0.0043496834 -0.0073567275 -0.003989399
-0.0024623997 -0.012556686 -0.008340929 -0.008040091 -1.306887e-39 -5.8385e-41 -1.19059e-39 -1.467372e-39
-1.275214e-39 -1.396684e-39 -1.161783e-39 -1.666969e-39 5.15071e-40 -1.130936e-39 -5.52291e-40 5.91757e-40
4.9983e-40 -1.3749e-39 -1.387647e-39 1.161e-39 -1.267027e-39 -1.704789e-39 5.55727e-40 -1.402176e-39
-1.358155e-39 -1.338478e-39 -1.379148e-39 1.138723e-39 1.084051e-39 1.127958e-39 -1.124367e-39 9.39948e-40
-6.11217e-40 1.1108e-39 9.36219e-40 -1.99796e-40 7.75162e-40 4.62434e-40 5.13293e-40 6.40311e-40
-2.54556e-40 -8.97536e-40 -4.72176e-40 -8.37441e-40 4.7294e-40 6.4547e-41 5.3114e-40 2.62654e-40
1.010806e-39 5.53866e-40 -9.0214e-41 1.60196e-40 8.21193e-40 3.08975e-40 -1.02148e-39 2.91407e-40
8.48332e-40 -1.30244e-40 0.022147764 0.28547287 0.11723506 -0.031150611 -0.3471206 -0.33424944
0.13057049 0.023896635 0.21958244 0.08641002 0.3167824 0.14241129 0.022011805 -0.34795427
-0.2694925 0.10067813 -0.0047947313 0.28203607 -0.12811013 0.21707046 -0.0017216352 0.0046152975
-0.2037334 -0.20863263 0.0013498724 -0.022780158 0.19758596 0.087943405 -4.2153726e-05 -0.018520128
0.104571484 0.07177265 0.05855133 -0.42769915 -0.073885396 -0.00023929194 0.033561368 0.028237937
-0.0034255006 0.00075331045 0.04492451 0.025709877 -0.5235236 -0.09560493 -0.016944168 -0.052253176
0.043676507 0.033833496 0.0042529926 0.07697399 0.01651112 -0.39968663 -0.019006941 -0.038521215
-0.2667322 -0.011453044 0.21897885 -0.49415088 0.031777088 0.5200331 -0.32517564 -0.039460447
0.35078642 -0.49790385 -0.01848226 0.49982026 -0.7755242 0.061097305 0.6986089 -0.5875672
0.030742165 0.59215873 -0.16076797 -0.022169061 0.14642434 -0.3310433 -0.014576453 0.32421762
-0.08752392 -0.041775443 0.1605186 0.115602694 -0.17827457 0.09416804 0.2970742 -0.39448828
0.19469199 0.12470922 -0.22296622 0.08974092 0.1262232 -0.27510217 0.04016207 0.33203956

dafam.level1_0.conv.bias f4 [32]
00000000: 062e 0380 96ab 5cb8 1a37 7336 3802 7d08
00000010: 668f 1480 f239 0680 cba1 69b7 b1b2 8937
00000020: 5e43 46b9 a53d 8539 5fc5 d6b8 eda1 1400
00000030: 3a8f 1380 c600 0cb9 6a33 0c00 1417 1380
00000040: 8b70 eeb8 9520 33b8 3897 58b7 32b4 0300
00000050: 665c ac38 b8f2 2cb7 71f8 6c37 1945 1380
00000060: f0da 1500 9873 1480 6422 0080 6095 7bb8
00000070: d5e4 7338 fc09 1480 3c2f 8081 27b3 1280
-2.92017e-40 -5.261189e-05 3.6241895e-06 7.6137026e-34 -1.888152e-39 -5.718e-40 -1.3925553e-05 1.6414882e-05
-0.00018907848 0.00025413666 -0.000102410784 1.894798e-39 -1.796254e-39 -0.00013351729 1.12047e-39 -1.753153e-39
-0.00011369687 -4.270727e-05 -1.2909812e-05 3.40148e-40 8.21881e-05 -1.0308511e-05 1.4124541e-05 -1.769662e-39
2.007085e-39 -1.878177e-39 -1.2337e-41 -5.998218e-05 5.814883e-05 -1.840292e-39 -4.708755e-38 -1.717307e-39

dafam.level1_0.in_norm.weight f4 [32]
00000000: 840c 0f00 2511 1e3e 74ef db3d 50e1 cb3a
00000010: 7089 1200 2c9c 1d34 a67a 543e 1e07 ae3e
00000020: 4337 b33e 8dfb 783e 3852 b13e 295d dfb2
00000030: 7f17 0400 05b0 6f3d 9ed8 1100 81c6 0480
00000040: 88c5 cb3d 3aab 823e 71e9 e63d dcf1 8db2
00000050: f4ff 313e c52e 653e 1bf1 a13e 523e 1300
00000060: 0d20 1300 9ecc 87bb 7555 1080 9932 db3e
00000070: 1e75 8c3e d36f 1580 54d5 c93b 1288 9609
1.382022e-39 0.15436228 0.107390314 0.0015554819 1.702342e-39 1.467858e-07 0.20749912 0.33989805
0.350031 0.24314709 0.3463304 -2.6002981e-08 3.75771e-40 0.058517475 1.638911e-39 -4.38552e-40
0.099497855 0.2552126 0.11274994 -1.6524545e-08 0.17382795 0.22381122 0.3162926 1.767231e-39
1.756372e-39 -0.0041442653 -1.500024e-39 0.4281204 0.27433103 -1.96866e-39 0.006159464 3.6239146e-33

dafam.level1_0.in_norm.bias f4 [32]
00000000: fc5b 77bb 054d b43d 79bc b8bd 50a6 d0bc
00000010: 96de 87bc 301a 26af 7b78 b03e 84d6 bfbe
00000020: 7658 2a3e 0685 643e bdb1 243e 0a8c 25ab
00000030: 7bc4 38b0 7389 cb3d bec8 d2b8 4c75 57b5
00000040: 396a 473e f4c3 9ebc 84c7 623e 8015 08af
00000050: 14c6 043e 9bcf bc3e 002b 06bf a5ac a1b2
00000060: 65cd beb9 c4fd 0abd 3647 9ab7 8d05 c4be
00000070: 4935 243e 6d4c 1db3 36fc 0cbd 569a 86bc
-0.0037744036 0.08803753 -0.09020323 -0.025469929 -0.01658563 -1.5106916e-10 0.3446692 -0.3746835
0.16635308 0.2231637 0.16083427 -5.881412e-13 -6.7218026e-10 0.09938326 -0.000100509715 -8.026443e-07
0.19474114 -0.019380547 0.22146422 -1.2376766e-10 0.12966186 0.3687714 -0.5240936 -1.8821376e-08
-0.00036392655 -0.033933416 -1.839139e-05 -0.38285485 0.16035952 -3.662392e-08 -0.034420215 -0.016431015

dafam.level1_1.conv3x1_1.weight f4 [32, 32, 3, 1]
00000000: 7b09 0100 5cad 0800 c1c9 0a00 64b1 16bd
00000010: 79c7 75bd b69a 843d 4771 983b ca6e 963c
00000020: f500 163d ea55 3d38 81d1 a537 6afc 4b38
00000030: 3762 0500 839a 0600 2557 0600 17b4 0c80
00000040: c9a5 0f80 982b 1080 3a4a 0d3e be57 2c3d
00000050: 1ddf 50bd 7694 88bb ea37 913c 48d2 51bc
00000060: bbf5 07bc 1052 94bc 0633 4f3d ae5e 27bd
00000070: 2864 ba3c ab2a 6cbc f615 92bc fede 93bb
00000080: 48df 09bd 9287 0500 0c44 0180 7f0b 0800
00000090: 2846 1400 db33 1400 5e5d 0b80 7bad 48bb
000000a0: 84d0 573e 4ed9 4dbe bd48 0b80 f8f5 0a80
000000b0: f4af 0e00 a93f 1100 f3fe 1280 4747 1180
000000c0: f00b 35be 7f60 4e3e 41ca 2abe 6dfa 153d
000000d0: d2f8 0f3d 8bbc a3bd 157c 263d 574e 1e3d
000000e0: 3cd8 eb3d 008a 0700 75e3 0980 fa98 0b80
000000f0: e0a6 d93d 95d1 413c 78aa 403d 2dd4 f63a
00000100: 75b8 7ebd 27bb d1bb e5ce 07bd ba01 a7bc
00000110: 1394 78bc ce42 0c80 9dbd 0b80 c396 0c80
00000120: 6648 1400 0c1a 0d80 cd26 1000 c6d9 8515
00000130: 5de4 6d0f 875b 9112 9064 0c80 056e 0780
00000140: c265 0a00 f846 d8bb c2f1 ffbc 7762 123d
00000150: 49ab 1f3d 69cf bfbc 32bd bc3d 2596 0600
00000160: bb07 0700 4cdc 0e00 9e6d a22e 3fdc 0e2e
00000170: 64d8 76ad d8a1 3a24 56a0 df23 5feb f723
00000180: e6b3 0d80 8f89 1280 6184 1280 cb36 c49e
00000190: ea40 bf9f 88a0 b9a3 50f2 0880 2c6f 0500
000001a0: 1821 0800 4e9d 0080 9026 0600 590b 0a00
000001b0: 0c2c 0480 8bee 0380 30b4 0c00 bc8c 1080
000001c0: e5fe 0600 5af0 0b00 81d7 dca2 938a 45a3
000001d0: 73f2 90aa 1d62 dd9f 4aa2 a2a2 1cc1 4213
000001e0: 1f35 309e 2237 55a6 cd2d 5ba9 6314 1da8
000001f0: c6c1 91a6 d10e f0a3 f2ad 2ca1 fc6a 3ba3
00000200: 98e7 310d 65f7 1280 b0a7 0680 fd00 1180
00000210: 0cfd 0280 c43b 0d80 b194 0480 dd61 dc83
00000220: 3d58 4e00 3215 670f 8697 0f00 8d71 0c00
00000230: a476 1580 2930 1180 7c2e 1300 438b 1400
00000240: 96b1 c087 1e08 0680 3bd9 288d 93df 0700
00000250: 08a5 0400 206b 0280 d81a 65a0 5961 e8a2
00000260: 816a e6a3 deab 1400 b4cd 0100 9e92 0480
00000270: 9194 7f8c 1c5d 6b81 a874 89a1 cccb 0db0
00000280: 11b0 5b9c 893d 79a0 e3cf 0000 3d7d 0680
00000290: 444f 0480 928c 0480 3a0a 1100 959b 0480
000002a0: d4ea 0500 c49c 1180 1ebe 0500 eb44 1500
000002b0: 7a64 0b00 3fbe 0580 e94d 0280 95e3 1100
000002c0: 4ee7 1100 ff43 1caf efce aaaf 04e1 4bb0
000002d0: f892 0ab5 c488 32b5 82b6 02b5 49e4 1180
000002e0: 806e 0780 34ad 1080 f63a 1080 d503 1380
000002f0: 18fc 1480 5adb 0100 c4ba 0180 e660 0980
00000300: 7ec1 0880 a046 0500 c65a 0080 9032 66bd
00000310: 960b 47be 8269 17be 1e3e aabb f6b3 713a
00000320: 1321 e8bc f5ae a33a 51fd 083b 3ed0 073b
00000330: 07e8 1080 2adf 0e00 5cf0 0e80 67d2 0880
00000340: 0672 0180 c69f 0900 b66e 1cbd 585e 413e
00000350: 2a94 45bd ff94 4bbd f1f9 52bd bf76 51bb
00000360: dc0b 81bd ca0a f3bd 0f53 0cbe 8ddc 17be
00000370: 182d bf3e ad56 813d 6ad5 dcbc ab11 923d
00000380: 6472 b1bc 6ffd 0900 4562 0800 9133 0300
00000390: 911e 0000 3e0d 0d00 19c5 0d00 54e0 30bd
000003a0: 28e9 4bbc 8c51 bcbd a93b 0780 1bb6 0380
000003b0: 81b9 0980 e361 0e80 fc99 0f80 a47f 0f80
000003c0: 2920 6cbd 4c64 b53d 0864 7ebd 95bc b3bd
000003d0: 36ab 3fbe 27fb febd eb1b 89bc 0cc2 28be
000003e0: 74d9 f83d 062e 0400 9e1e 0800 d71d 0800
000003f0: a38d 01be 5fd6 b83d 0687 333d d3ff f03c
9.5236e-41 7.96874e-40 9.9073e-40 -0.036790267 -0.060004685 0.06474821 0.0046521756 0.018363375
0.036622006 4.5141125e-05 1.976709e-05 4.863405e-05 4.9441e-40 6.06441e-40 5.82275e-40 -1.16663e-39
-1.437005e-39 -1.485006e-39 0.13797846 0.042075865 -0.050994027 -0.0041680885 0.017726857 -0.012806483
-0.008298333 -0.018105537 0.05058577 -0.040861778 0.022752836 -0.01441447 -0.017832737 -0.0045126667
-0.033660203 5.07811e-40 -1.16246e-40 7.38808e-40 1.861877e-39 1.855312e-39 -1.043684e-39 -0.003062098
0.21075636 -0.20102426 -1.036284e-39 -1.006592e-39 1.348817e-39 1.58404e-39 -1.744497e-39 -1.586773e-39
-0.17680335 0.20153998 -0.16678716 0.036615778 0.035149403 -0.07994946 0.040645678 0.03864893
0.11515853 6.92354e-40 -9.08116e-40 -1.065068e-39 0.10627532 0.011829753 0.04703757 0.0018831544
-0.06218763 -0.006400484 -0.033156294 -0.020386565 -0.015172022 -1.125991e-39 -1.078211e-39 -1.156109e-39
1.862682e-39 -1.203205e-39 1.483287e-39 5.406186e-26 1.1728983e-29 9.17335e-28 -1.138101e-39 -6.82316e-40
9.54859e-40 -0.006600257 -0.031243209 0.035738435 0.03898171 -0.02341433 0.09215774 6.04875e-40
6.45622e-40 1.364725e-39 7.386379e-11 3.248268e-11 -1.4031529e-11 4.0469408e-17 2.4245613e-17 2.6879477e-17
-1.258397e-39 -1.702386e-39 -1.700528e-39 -2.0774969e-20 -8.099904e-20 -2.0125728e-17 -8.2161e-40 4.99058e-40
7.46556e-40 -5.643e-41 5.64847e-40 9.22426e-40 -3.83143e-40 -3.6108e-40 1.166665e-39 -1.519854e-39
6.42452e-40 1.096412e-39 -5.9859293e-18 -1.0708736e-17 -2.5747771e-13 -9.3759455e-20 -4.408202e-18 2.4581453e-27
-9.328348e-21 -7.397394e-16 -4.8667494e-14 -8.719671e-15 -1.0113919e-15 -2.6027127e-17 -5.850608e-19 -1.0159945e-17
5.4821107e-31 -1.741787e-39 -6.11168e-40 -1.561558e-39 -2.74447e-40 -1.215301e-39 -4.20682e-40 -1.2952906e-36
7.194823e-39 1.13932614e-29 1.431889e-39 1.14276e-39 -1.971106e-39 -1.57848e-39 1.76155e-39 1.886668e-39
-2.8993325e-34 -5.53925e-40 -5.203048e-31 7.23052e-40 4.26544e-40 -2.221e-40 -1.9405936e-19 -6.2986797e-18
-2.4981756e-17 1.898364e-39 1.65628e-40 -4.19938e-40 -1.9689193e-31 -4.3229486e-38 -9.31436e-19 -5.1585114e-10
-7.268858e-22 -2.1111481e-19 7.4576e-41 -5.9594e-40 -3.95777e-40 -4.17769e-40 1.564872e-39 -4.23154e-40
5.43418e-40 -1.61744e-39 5.27379e-40 1.953269e-39 1.046235e-39 -5.27425e-40 -2.1162e-40 1.642844e-39
1.64418e-39 -1.4212274e-10 -3.1069855e-10 -7.4170736e-10 -5.1622874e-07 -6.650919e-07 -4.869436e-07 -1.643097e-39
-6.82488e-40 -1.531502e-39 -1.490519e-39 -1.746249e-39 -1.927144e-39 1.70524e-40 -1.58834e-40 -8.6128e-40
-8.04096e-40 4.84513e-40 -3.2563e-41 -0.056200564 -0.19438013 -0.14786342 -0.005195393 0.00092202367
-0.028336084 0.0012488054 0.0020902941 0.0020723487 -1.552604e-39 1.365753e-39 -1.371922e-39 -8.10162e-40
-1.3274e-40 8.83835e-40 -0.03819152 0.18883646 -0.048237003 -0.04970264 -0.051507894 -0.0031961647
-0.0630109 -0.11867292 -0.1370356 -0.14830227 0.3733909 0.0631536 -0.026957233 0.07132276
-0.021660991 9.17434e-40 7.69936e-40 2.94005e-40 1.0965e-41 1.198612e-39 1.264567e-39 -0.043182686
-0.0124457255 -0.09195241 -6.6425e-40 -3.40834e-40 -8.93066e-40 -1.320812e-39 -1.432772e-39 -1.423321e-39
-0.057647858 0.08857021 -0.062107116 -0.087762035 -0.18717656 -0.12450247 -0.016736945 -0.16480273
0.12150851 3.83852e-40 7.45667e-40 7.45388e-40 -0.12651686 0.09025263 0.04382994 0.029418861

dafam.level1_1.conv3x1_1.bias f4 [32]
00000000: 5566 953d 8019 5fb8 554b 1d3e 73f6 3d3e
00000010: 2fd0 c1bd 11d0 11bd 8c00 febc e804 e73d
00000020: 3324 e8bd 3e28 063e b517 3c3e ad8c 1f3e
00000030: a53c 8ebc bbf8 273e c22c 8dbd fb0f b6bd
00000040: b979 3bbc 1eed efbd 0c74 11be 312b 003e
00000050: 05e3 003e 1024 533e 9835 bdbd 8835 343d
00000060: 4db6 ba3d 9b55 853e edb9 14b3 d66b b63e
00000070: 2e6d b63d fc67 033e 1051 93bd 0393 6dbd
0.07294909 -5.3191092e-05 0.15360768 0.18551044 -0.09463536 -0.03559882 -0.03100612 0.11280233
-0.113350295 0.13101289 0.18368419 0.15581007 -0.017362902 0.16403477 -0.068933025 -0.08889767
-0.011442595 -0.117151484 -0.14204425 0.12516476 0.12586601 0.20619226 -0.09238738 0.043996364
0.09116802 0.26041874 -3.4628034e-08 0.35629147 0.08907543 0.12832636 -0.07193196 -0.05800153

dafam.level1_1.conv1x3_1.weight f4 [32, 32, 1, 3]
00000000: 8dc2 b33d 45b4 083d 8819 fabd d448 0600
00000010: b4df 0700 9137 0800 ce45 8b3b 0204 73bd
00000020: 6fa6 c33c d9d4 113e b4aa a8be 1a22 293e
00000030: 6108 fd3d ab90 e9bd 54ae 38bc d28f 28be
00000040: 0c07 77be 46c0 0cbe 533f 053d 8829 063e
00000050: f0be df3c dafb fbbb 4fca 573d 6ed6 2abd
00000060: 4bf2 90bb 93dc e6bc f851 91bc 9115 1bbd
00000070: 95b0 2f3e 2f59 95bd 9502 733c 1965 a1bd
00000080: 03ef 093d 719d 8bbd b1a5 303d 1f60 a43d
00000090: f4a4 81ba ac80 4e3b b93f c63a dd5f 8dbd
000000a0: 00c0 243d e82d 01be 812f 3ebd a512 fdbd
000000b0: bb4b 93be 92e8 bfbc 637a 0e3e d22e a33c
000000c0: c6b4 3db2 71d0 03b3 3373 5eb2 a89e de3c
000000d0: 30db 3ebd ee3d 38bb 8ce2 073b f3f6 353d
000000e0: bfca 46bd 3005 dabc 8010 fa3d 4038 94bd
000000f0: a6eb b4bd 24b1 cabd 51b6 b5bd 0737 96bc
00000100: d6fb 15bd d8e4 183e 3c4f c9ba 604f 013d
00000110: 7219 59bc 48c7 fcbd 776d 8f3d 7f1b c9bc
00000120: e4fa b93d 5e61 2cbe 7320 f63d 63f3 7c3c
00000130: 4a56 933c 6dcb 53bc 7671 0280 1161 0200
00000140: ca97 0480 85a9 02bc 3fb8 793c 928c 7cbc
00000150: 4f57 813c 129d 053d d521 c3bc a5b2 02bd
00000160: 5424 4e3d 03fb acbc 8aac 78bb eb26 893c
00000170: fe5a da3c b128 0d3d f035 8a3d be7e 35bd
00000180: 0953 b13d 2203 5c3c 70f7 58bd 2dfc 0000
00000190: ff77 0280 73b8 0280 4834 cf3b 22ad 39bd
000001a0: 14b0 763b 8afe 0c3e e26f e03b 51d6 98bc
000001b0: 37d1 453d 0c19 8c3d 7a87 a6bd 3c03 033b
000001c0: 2bf6 473e ea76 da3d d8c2 8bbd a139 c4bd
000001d0: b929 a0bd 77ee 953d cdf2 0dbd 78c8 a63c
000001e0: 88cb 733d fcc2 b03d 1c89 93bb 7335 ccbd
000001f0: 7bfd d73d 1d69 35bc 2392 09bd 17cc a33c
00000200: 7829 d03b 8681 b4bc 94b5 c63d 61be dbbd
00000210: 8252 edb9 b8e4 c1ba 2ce8 92b9 e3ae b73c
00000220: 414c 5ebd ec87 c3bd 0174 01be 3838 ccbd
00000230: 5935 03be b938 32bd 9aa8 4bbd 169a dabd
00000240: 9bba cb99 8789 a699 dcdd a80c 9140 aebc
00000250: ef42 433d 63ea 4f3c ec64 e23c 86bc 2cbb
00000260: 650a 93bd 5429 10bd e20b e13b 55e5 ca3c
00000270: 2903 74bd 9022 dc3d 116b dabc 179e a43d
00000280: fae2 033e e7c1 8f3e f366 a23b 5ee3 ae3c
00000290: 1d23 cd3c ef2b 7d3c 32a8 eabd 27c9 fb3c
000002a0: 6b06 5bbd 2b71 fbbc ddf6 6dbd fd21 833d
000002b0: a9b3 69bd c6d3 e7bc b666 0380 c670 0380
000002c0: 6210 0800 c5e4 993c 38f0 0ebb c659 0f3b
000002d0: 2432 983d 1c12 4d3d 9e0e 80bd 4ba9 8fbc
000002e0: d193 293c 7e4a 07bc 152f 333d aca2 073e
000002f0: 3796 dbbc fffd 0dbc 1274 5a3d 98fc 52bc
00000300: 95e0 0980 9b7b 0900 4bec 0a00 ad09 0d00
00000310: 2897 1380 0050 0c80 1e83 0580 8bf5 0380
00000320: 3383 0600 6499 0380 3151 0480 1694 0b00
00000330: a435 0d00 7d1a 0c80 6fe6 0b00 98bb 0880
00000340: 7474 0000 f839 0880 0bcf 0200 43a4 0780
00000350: e38b 0000 73f0 0980 7acc 0680 b1fd 0880
00000360: 0da7 0000 4b3f 0b80 c4eb 0800 6a97 0800
00000370: 276d 0200 6784 0000 4bc8 0900 ce4c 0680
00000380: 2319 0900 777e 0180 1602 0d00 523e 0a00
00000390: 782c 0f80 f60b 0f00 5e67 0f00 6cc4 0000
000003a0: 00a7 0280 4c80 0600 b3f1 0880 fde9 0c00
000003b0: 503a 0100 947f 0200 2db2 0000 ba4c 0300
000003c0: 8633 1300 8be1 1400 2afa 0380 eb0e 0800
000003d0: 0611 0980 e8a6 0000 8706 0b80 9acd 0780
000003e0: 5482 0280 a272 0580 7c71 0800 f747 0700
000003f0: 75be 0b80 1db6 0500 4633 0300 6b77 0400
0.08777342 0.033375043 -0.12211901 5.77139e-40 7.23098e-40 7.54617e-40 0.0042502647 -0.059329994
0.023883073 0.14241351 -0.32942736 0.16516915 0.12355114 -0.11404546 -0.011272032 -0.16461113
-0.24123782 -0.13745221 0.032531094 0.1310178 0.027312726 -0.007689935 0.05268317 -0.041708402
-0.004423415 -0.02818135 -0.017739281 -0.037862364 0.17157204 -0.07292401 0.014832159 -0.07880611
0.033675205 -0.06817139 0.043126766 0.08026146 -0.0009891079 0.00315098 0.0015125192 -0.0690305
0.040222168 -0.12615168 -0.046432022 -0.12357072 -0.28768715 -0.023426328 0.13913874 0.019919787
-1.1042351e-08 -3.069039e-08 -1.2948294e-08 0.027175263 -0.046595752 -0.0028113085 0.0020734398 0.044424962
-0.048533197 -0.026613802 0.122101784 -0.07237291 -0.08834009 -0.09897068 -0.08872665 -0.018336786
-0.036617123 0.14931047 -0.0015358697 0.03156984 -0.013250696 -0.123426974 0.07003301 -0.024549244
0.09081057 -0.16834018 0.12017908 0.015438887 0.017985482 -0.012926918 -2.24373e-40 2.18492e-40
-4.21794e-40 -0.007974987 0.015241682 -0.015414374 0.015788702 0.032620497 -0.023819843 -0.03190865
0.050327614 -0.021115785 -0.0037944638 0.01674219 0.026654717 0.034462634 0.06748569 -0.044310324
0.08658416 0.013428481 -0.05297035 9.0464e-41 -2.26717e-40 -2.49839e-40 0.006323371 -0.045331128
0.0037641572 0.13768974 0.006849275 -0.018656882 0.048295226 0.06840715 -0.08131309 0.0019990942
0.195275 0.10667212 -0.06824273 -0.09581304 -0.07820458 0.07320874 -0.03465538 0.020359263
0.059520274 0.0863094 -0.0045024287 -0.09971132 0.105463944 -0.011072424 -0.033586632 0.019994779
0.0063525997 -0.022034418 0.09702602 -0.10729671 -0.00045265636 -0.0014792895 -0.00028020272 0.02242226
-0.05427194 -0.095474094 -0.12641908 -0.099716604 -0.1281332 -0.043511126 -0.049721338 -0.10673921
-2.1065077e-23 -1.7219545e-23 2.6018025e-31 -0.021271022 0.047671255 0.0126901595 0.027636014 -0.0026357486
-0.07179717 -0.035195664 0.0068678716 0.024767557 -0.059573326 0.1074878 -0.026662381 0.08037966
0.12879553 0.28077623 0.00495612 0.021348651 0.025041157 0.015452369 -0.11457862 0.030735565
-0.053472918 -0.030693611 -0.058096755 0.06402967 -0.057056103 -0.028299224 -3.12352e-40 -3.15962e-40
7.40561e-40 0.018785844 -0.0021810662 0.0021873577 0.074314386 0.0500661 -0.06252788 -0.01753678
0.010350184 -0.008257506 0.043746073 0.13245648 -0.026805026 -0.008666514 0.05333335 -0.012877606
-9.07084e-40 8.70861e-40 1.003121e-39 1.197332e-39 -1.799099e-39 -1.130725e-39 -5.06213e-40 -3.63591e-40
5.98078e-40 -3.30533e-40 -3.96468e-40 1.063314e-39 1.213104e-39 -1.111528e-39 1.092854e-39 -8.0198e-40
4.1776e-41 -7.55479e-40 2.57944e-40 -7.01774e-40 5.0182e-41 -9.12776e-40 -6.24365e-40 -8.25691e-40
5.9927e-41 -1.032896e-39 8.19261e-40 7.89001e-40 2.22827e-40 4.7497e-41 8.98371e-40 -5.78565e-40
8.35537e-40 -1.37203e-40 1.19461e-39 9.40711e-40 -1.393485e-39 1.381823e-39 1.414614e-39 7.0463e-41
-2.4358e-40 5.97037e-40 -8.2139e-40 1.185965e-39 1.12754e-40 2.29437e-40 6.3917e-41 3.03031e-40
1.763358e-39 1.91762e-39 -3.65248e-40 7.40036e-40 -8.32626e-40 5.9875e-41 -1.012532e-39 -7.16604e-40
-2.30424e-40 -5.003e-40 7.75394e-40 6.68665e-40 -1.078514e-39 5.24507e-40 2.939e-40 4.10181e-40

dafam.level1_1.conv1x3_1.bias f4 [32]
00000000: feb4 0f38 3078 1438 364d 0780 bb13 dbb7
00000010: 1a99 93b7 b5cc fab7 240f 5ab7 4a20 9135
00000020: 64e1 18b8 bd81 6937 4f27 d7b7 f186 41b8
00000030: b25d d736 4f32 c737 85a6 73b8 aca8 3636
00000040: 0854 3e38 3ba7 5e38 e50c 9337 7738 5138
00000050: fff7 49b7 d22f 1238 8908 9cb8 5d60 1c38
00000060: b91d a238 21d2 b2b5 f4dc 8636 5094 7737
00000070: cad4 33b8 0eab 7db8 170c ae37 740d cdb5
3.426242e-05 3.5397883e-05 -6.70547e-40 -2.6116022e-05 -1.7595059e-05 -2.9897647e-05 -1.2997338e-05 1.0812739e-06
-3.6449535e-05 1.3918089e-05 -2.5648302e-05 -4.614046e-05 6.418407e-06 2.3746075e-05 -5.8090798e-05 2.7218293e-06
4.537779e-05 5.308467e-05 1.752977e-05 4.988207e-05 -1.2038275e-05 3.485365e-05 -7.4402495e-05 3.7283044e-05
7.730298e-05 -1.3323189e-06 4.0192335e-06 1.4756879e-05 -4.28751e-05 -6.0479208e-05 2.0748046e-05 -1.5277606e-06

dafam.level1_1.in_norm.weight f4 [32]
00000000: 8aeb 853e 3791 473e 1d95 a893 81ff 933e
00000010: 86f4 3c3e 3981 843e ce35 953e f084 5f3e
00000020: 7d4d 543e 09b6 883e 4fd1 853e 6c22 663e
00000030: 81d0 5f3e 281c 823e 183a 5f3e 2f4b 873e
00000040: c17c a33e b97f 253e 387a 583e 9c67 9b3e
00000050: 269f 973e 59a4 5d3e 9cd7 973e d5bf 813e
00000060: 60aa 793e 913a 803e e648 553e 8c0e 543e
00000070: 7833 903e 817c 4d3e 667b 7c3e 99b9 583e
0.26156265 0.19488989 -4.25562e-27 0.28905872 0.18452653 0.2587984 0.29142612 0.21828055
0.20732684 0.26701382 0.26136252 0.22474068 0.21856882 0.25412107 0.21799505 0.26424548
0.31931117 0.16162004 0.21140373 0.30352485 0.29613608 0.21644725 0.29656684 0.2534167
0.24381399 0.25044683 0.2082859 0.20708674 0.28164268 0.20067026 0.24656448 0.2116455

dafam.level1_1.in_norm.bias f4 [32]
00000000: c441 83bd 5e79 e7bd 02aa 1b95 15b7 a73c
00000010: cb84 45bb d9e9 7e3c e943 3ebe a58a 5abd
00000020: 8185 1fbe bb3a b3bd 8e4f 9e3d 0000 2abd
00000030: 2e77 27be 97a3 0abf 1527 97bd ff18 0abe
00000040: d145 c13d 22e1 d53d 89f8 083c 4645 3fbe
00000050: 1789 73bb 9f06 f53d 2e68 963c a658 95bd
00000060: 9d7a 9e3c 859c 6d3d 08d0 4fbe ff03 573d
00000070: dba9 e43d 8d30 203e 60cd 14be ef67 5cbe
-0.06409028 -0.11302446 -3.1436113e-26 0.020473043 -0.0030138965 0.015558683 -0.18580593 -0.053354878
-0.15578271 -0.08751436 0.077300176 -0.041503906 -0.16354057 -0.5415587 -0.07380501 -0.13486098
0.094371445 0.10443331 0.008360037 -0.1867877 -0.003716057 0.119641535 0.018360224 -0.07292299
0.019345576 0.058010597 -0.20294201 0.052494045 0.1116521 0.1564352 -0.1453147 -0.21524023

dafam.level1_1.conv3x1_2.weight f4 [32, 32, 3, 1]
00000000: e66a 173e 12c4 d6bd 5c0b 15be fe5e 43bc
00000010: 277e 953c eaf5 76bd 5acd 2014 db36 fd13
00000020: 831b 8913 bf31 0ebd 0760 2c3e 351c cd3d
00000030: 7bc5 e53c 01b8 d73d da7e 003d a599 b2bd
00000040: 085a b0bc 9abd 0a3e 5746 083d fbb8 1e3d
00000050: 5e92 d73d bb42 4ebd ac46 88bd d301 f2bd
00000060: f580 01bd df13 18bc 36b1 f4bd 3914 92bd
00000070: e37b e5bc c686 2fbd ee5e 89bb e609 4fbb
00000080: 8f80 c43d 8e62 6f3d be2c 563e 6ca9 50bd
00000090: 739a d33c 59d6 f23d cc23 373d 277e b43c
000000a0: c914 073d a286 e53b 253c 27bd aa70 133d
000000b0: 34e9 193c 0f9d aebd b778 7b3d 75af 5abd
000000c0: dbe3 7abd da62 943d c848 67bd dd94 07bc
000000d0: 24c9 7b3c 9c86 5c3c 4d2e aebd 210e 4a3d
000000e0: 9095 1f3e b32c 7fbc 1cae 37bd 84ed 3abd
000000f0: 0b58 b2bd a868 5b3d 3be7 68bd ec38 223d
00000100: 01a2 403e 70d4 97bd 754d c63d 5581 b83b
00000110: aa95 d53d fdf8 503d f623 8a3b 34fb 9abb
00000120: 5fac f33c 3b5d cabd afc0 923d 8d17 913d
00000130: 239d 4abe fe95 473d 2ac7 82bc 7175 553c
00000140: 6702 f23c 5442 003d 50d4 b43d 7b5a 1fbd
00000150: c440 4fbc 4f87 9fbd dcd7 76bd dbe0 0bbe
00000160: 08a6 9ebc 3f8d b53c c579 6d3d 9bc9 483d
00000170: f7a1 813d b2ba 95bb 1d8b 24bc fc21 ec3c
00000180: b779 04bd 2d02 163b 9ffc 93bc 6d4b 3bbd
00000190: d4e0 8dbd af9a dcbc 4b45 0c14 5600 1613
000001a0: 3176 4b13 7c66 623d 59b3 c73e b2d1 923d
000001b0: 8a06 91bd c5d9 5dbd 8c4d 5a3b 65f2 b33d
000001c0: f016 183d 9778 aebd aea4 033e 71e5 813d
000001d0: 52a5 363d 1a5d 433c 7472 b1bc 75b6 30bb
000001e0: 237c 92bd 6bf4 833d ac7d bf3d 6fe3 a8b7
000001f0: 8066 903c 2378 95bd a9a2 253b 7c27 4cbd
00000200: 461a 8ebd 5fa6 3c3d 3dcd 703b d46c 11bc
00000210: c425 fcbd 9d30 29bd f7d3 cbbd 4547 a8bc
00000220: 4395 993b b73f 06bd 820e d23a 1fb4 803d
00000230: bcea 91bd 81f0 f33c 31a8 47bb 74a3 d73d
00000240: d70a 0d3d e7de 07be 93fd dbba b2ff e4bd
00000250: 634a 05be 1e7e 50be f18c 5b3c a3a4 59bd
00000260: 8e1a 913c 853c 80bc 40b7 413d 3608 a6bb
00000270: 7d98 2bbc b189 e7bd a0db 5bbd bdf9 97bc
00000280: 48ef 79bc c4e3 d5bc 2e61 0cbc d735 45bd
00000290: eab1 77bd 399a 903d 9790 c63d 0837 873d
000002a0: 7b87 913d d722 cc3d 6b6d 7a3d 149d 95bd
000002b0: 2d69 93bd 94e4 8d3c 389c 613c c5b9 a8bb
000002c0: a043 03bd 6483 613d 047c 593b 9c60 d7bc
000002d0: 77d2 8bbd 3320 8abd 5d30 debd f978 683d
000002e0: 1883 073e 044b 18bc 360c bf3c 4bae a83d
000002f0: a6a2 4cbb ff3b 0bbd 71cf 4dbd 6f5f c0bb
00000300: 39d5 d03d 7df6 48be 5655 3b3e c73d fe3d
00000310: d40e 8dbd f039 1dbd d863 0c15 99cc 8d15
00000320: 5c9b 5f15 f5e3 363d 861d 473c 99d8 bdbd
00000330: b3e0 4bbd 5c94 f8bb b5bb 14bc d82a aebd
00000340: b161 e7bd d445 fe3d 3370 2a3c d772 1b3d
00000350: 2b09 a3bc a112 6c3d 28ab 3dbd ec3a 0d3d
00000360: c40d 92bd bf85 b6bd f1af 52bd d4a3 693d
00000370: 986c 7a3e 405c 22bd 1976 10be fae4 e53d
00000380: 82cb 3dbd 01f1 243c 6e2c ba3d 8852 d23d
00000390: b62b ae3d fcbc 093d 4241 df3c 4b99 503d
000003a0: a590 50ba b589 613d 9153 aabc ed4d 8bbc
000003b0: ae9c 8cbd ad32 91bc 5cd8 223e d88a 27bd
000003c0: a040 7bbd 9eb1 72bc ad0d 92bd f613 2f3c
000003d0: f81a 7cbd aff7 893d d70a 393d ae0f 603e
000003e0: 3e88 113c 1bb6 683d 33f8 073e 7e2f 3cbd
000003f0: be39 65bd 9d65 41bd 709a 983c 0b19 c1bd
0.14786872 -0.10486616 -0.14555115 -0.011924503 0.01824863 -0.060293116 8.118434e-27 6.392027e-27
3.461079e-27 -0.03471541 0.16833507 0.10015146 0.028048268 0.10533143 0.031370975 -0.087207116
-0.021527305 0.1354889 0.033270206 0.03875063 0.10525964 -0.050356608 -0.066541046 -0.11816754
-0.031617124 -0.009282081 -0.11947863 -0.071327634 -0.028013175 -0.04285314 -0.0041922247 -0.0031591593
0.09594833 0.0584436 0.20915505 -0.050942823 0.025830483 0.1185729 0.044711873 0.02203281
0.032978807 0.007004575 -0.040828843 0.035996117 0.009393979 -0.0852605 0.06139442 -0.053389985
-0.061252456 0.07245417 -0.056465894 -0.008275238 0.01536778 0.013459828 -0.08504925 0.04932988
0.15584397 -0.015574622 -0.044843778 -0.04563667 -0.08708199 0.053566605 -0.056861144 0.039605066
0.188118 -0.07413566 0.096827425 0.005630652 0.10428937 0.051018704 0.0042157127 -0.004729653
0.029745279 -0.098810636 0.07165658 0.0708457 -0.19786505 0.048727028 -0.01596411 0.0130284885
0.029542161 0.031313255 0.08829558 -0.03890465 -0.012649719 -0.0778948 -0.060264453 -0.13659994
-0.01936628 0.022162078 0.057977457 0.04902039 0.063297205 -0.004569375 -0.010042933 0.028824799
-0.03234264 0.002288948 -0.018064795 -0.04572623 -0.06927648 -0.026929228 7.081859e-27 1.8932827e-27
2.5680475e-27 0.055273518 0.3900402 0.071689025 -0.07081325 -0.05416276 0.0033310382 0.087864675
0.03713125 -0.085190944 0.12855789 0.063425906 0.044591255 0.011924053 -0.02166102 -0.0026964222
-0.071525835 0.064431034 0.09350142 -2.0133068e-05 0.017627 -0.07298305 0.0025273955 -0.049842343
-0.06938605 0.0460571 0.0036743425 -0.008876044 -0.12311891 -0.041306127 -0.099525385 -0.020541796
0.004686983 -0.032775607 0.0016026052 0.06284355 -0.0712485 0.029777767 -0.003046524 0.10529223
0.034434166 -0.13268624 -0.0016783945 -0.111815825 -0.13016658 -0.2036061 0.013400302 -0.053135525
0.017712858 -0.015653858 0.0472939 -0.005066897 -0.010473368 -0.113055594 -0.053676248 -0.018551702
-0.015254803 -0.026109584 -0.008568091 -0.04814705 -0.060472406 0.07060666 0.09695547 0.06602293
0.07105919 0.09967583 0.061139505 -0.07305351 -0.07197795 0.017320909 0.013770156 -0.0051490986
-0.032046914 0.055056944 0.0033185491 -0.026291184 -0.06827252 -0.06744423 -0.10849068 0.056755994
0.13233602 -0.009295229 0.023321252 0.08236369 -0.0031224876 -0.033992764 -0.05024666 -0.0058707516
0.10196919 -0.19625278 0.18294272 0.12414127 -0.06887594 -0.03838533 2.8351538e-26 5.7272245e-26
4.5157048e-26 0.04465099 0.012153035 -0.09269828 -0.049774837 -0.007586045 -0.009077956 -0.085042655
-0.1129793 0.124156624 0.010402727 0.037951317 -0.019901833 0.057634953 -0.046305805 0.03448002
-0.07131532 -0.08912229 -0.051437322 0.057041004 0.24455488 -0.039638758 -0.1410755 0.112253144
-0.04633666 0.010067225 0.090905055 0.10269648 0.08504431 0.033627495 0.027252797 0.05092744
-0.0007956124 0.05506297 -0.0207918 -0.017004931 -0.06865822 -0.01772436 0.15902847 -0.040903896
-0.061340928 -0.014812855 -0.07131515 0.010685911 -0.061549157 0.06736695 0.045176353 0.21880981
0.00888258 0.056814294 0.13278274 -0.04594373 -0.05596327 -0.047216047 0.018628329 -0.09428605

dafam.level1_1.conv3x1_2.bias f4 [32]
00000000: eca0 f53d 86e4 77bd 37e5 e6bd 24b5 2c3b
00000010: 964a 253c 63da 7fbc 4296 ad3b d39f a6bc
00000020: 2789 a4bb 51d5 c0be 17d3 0e3e d903 2fbd
00000030: 47ab b63d 4687 b8bc 7681 ff3d 6297 6a3e
00000040: 4fb1 3cbb cfe5 af3d 8d53 f33d 20c5 203e
00000050: 95f5 623c b321 073d 20fa 3a3e 6a81 50bd
00000060: 8e57 7bbe 3d3c 1b3e 5094 38bd bb4a e03d
00000070: 3b32 773d 23e5 e63c f63e 123e 2a5e 18bc
0.11993584 -0.06052067 -0.11274188 0.0026353085 0.010088583 -0.015616032 0.005297453 -0.020339882
-0.0050212326 -0.37662748 0.13947712 -0.04272828 0.08919387 -0.02252544 0.124758646 0.2290931
-0.0028792208 0.085887544 0.118811704 0.15700197 0.013852497 0.032991122 0.18259478 -0.05090467
-0.24545118 0.15159698 -0.045063317 0.10951754 0.060350638 0.028185433 0.1428183 -0.009299794

dafam.level1_1.conv1x3_2.weight f4 [32, 32, 1, 3]
00000000: 29be 54bd e147 8b3d 924e a1ba f758 783c
00000010: 8208 98bd 847c a53d 7b07 99bd 9a83 803d
00000020: ca48 c23c ed7e a1bd cf4f 94bb 71c5 26bd
00000030: c318 21be 15c1 8d3e 4774 b9bd 66e8 0b3d
00000040: f211 533d 366f 0bbe 2bde 433d d52d 36ba
00000050: 3f1c c4bc f36e 4fbd e5bf 10bc 4798 ce3b
00000060: 808d 2cac 153a 0dad 4a07 89a8 c912 dcbd
00000070: e03b a4bd 9e8c 55bc 33b0 b0bc d3bd e93b
00000080: e34e 5cbd 17bd b3bd b192 b4bb 0273 813c
00000090: fe67 5fbd 3182 4bbc a0c3 853d 77f1 53bd
000000a0: 5e93 45be 34e9 32bd bc26 ac3c e174 f9b8
000000b0: 2aa2 873d 8312 ebbc 0ef4 e83d e163 773c
000000c0: 6356 4fbd 8fa1 afbd bb3d d6bd 6c2a abbd
000000d0: d213 a3bd ed7b 663d f402 d0bc 0cd2 ea3a
000000e0: 0e5f 9ebc 44e8 12be 0fea 1abe 9457 933e
000000f0: 907d c5bc 6e29 cd3c 35a0 59bd 583c 283d
00000100: 289f 43bd cf64 0bbd c427 2dbd e240 0c3d
00000110: 3289 f23d d381 353d f63a 6e3d aff6 92bd
00000120: 7c65 00bc 11cb c93d fb4e ec3d 202e 443d
00000130: 577d 15be b381 06bc 24ec 393c 499d 65bd
00000140: 7a1d 92bd aa28 b53d 297d a0bd db81 39be
00000150: 027c 91bd 9306 193c e08e 0abd 8e36 59bd
00000160: a327 8a3d 5b32 2b3d f1c0 953c cc1a 7b3b
00000170: 2cbe 1e3d 44aa 0cbd a479 833c 0ca6 17bd
00000180: 38c6 af3b 7095 48bd d24e d9bd 77e5 12bd
00000190: 06fb 71bd 31c0 13bd 1f60 013d d286 7e3d
000001a0: 90c1 5ebc d967 6fbd a98f d13d d7b3 833d
000001b0: c9bf 0bbe a71a 16be ecfd 873d 86d3 38bd
000001c0: e829 d03c 30e3 92bd f4c5 033d 56af ed3b
000001d0: 52f1 31bd ced3 cb3d a1e7 e43d f655 b33d
000001e0: 60ed c8a8 72d0 f0ae bf85 69ad a1e8 c7bc
000001f0: 395b 9fbd 3f98 30bd c7d9 a33b e008 d03d
00000200: 3a70 9dbd 49eb a13c df0c 333c 87f6 e6bd
00000210: c25f 1fba 1269 ddbc f749 143c 64fd 01be
00000220: 3827 03be 72b1 d2bd 2acc 13be 05bb c53c
00000230: eff7 0a3d d14a 2d3d cc55 06be 3d74 c5bc
00000240: ff8e 00bd 76b2 273d 52c9 84bc a6ab d5bb
00000250: 2691 203c 53e4 97bc e816 da3c ed6b 8dbd
00000260: 0406 293d ece6 9bbc e055 2b3c 2e00 933d
00000270: 0ebf c23d a71e 533d 7a5b a739 eeae 7a3b
00000280: f99f 62bc 4fdb 06be 0726 11be 9e52 e2bd
00000290: e13a 8dbd 5706 51bd b66b bcbc 4cc1 193c
000002a0: f18c 24bc b96a 03be 36b5 45bd 7bb7 b3bd
000002b0: ef38 763d 2b41 b13d e8b9 36bd 841b ba3b
000002c0: 6019 77bd 56d9 f83c 4091 76bb a44c 85bd
000002d0: 4484 edbc 922a dabc 66a0 d83d 8779 21bd
000002e0: 27c1 84bd 83b8 08be f22c 8dbd ad35 b4bc
000002f0: 0d68 683d 7051 003e 6047 87bd dff0 dc3d
00000300: 8eff 343d 2fe7 58bd ccc5 35bd f7fe 22bd
00000310: 40e1 7f3d 127d 583d 9889 2f3d 9f31 193d
00000320: c69d 573d 4826 fabd 77c8 c3bd b1e7 89bd
00000330: 61eb c43d bc27 a7bd 1913 d4bd 8dfd 453c
00000340: 217f d9bd f5a9 27bc 570f aebb a478 03bc
00000350: 88dc 5a3d 782d d03c 3d39 2fbd dbf5 bd3b
00000360: 2f00 75af f7ec 0f33 4f39 8735 913a cc3c
00000370: 39fb caba 10d8 d9bc a36e 303d c396 08bd
00000380: 9b04 893c e86b 203c 2815 63bd a69f c33d
00000390: 0311 1abd 7ea3 d7bd 5e86 22ba c713 c7bd
000003a0: 0a41 8abe 7984 53be fac8 31bd d8e8 033d
000003b0: e554 893d 1722 acba 6169 143e 43cb e23c
000003c0: 1df2 18be 9797 19be 1a00 46bd b787 9fbc
000003d0: 3893 54bd 58d3 dabc a274 2dbc 7c45 8bbd
000003e0: 970f 7cbc ae4f 223e 7714 a33d 8c19 1ebd
000003f0: a84e e4bb c9ea 86bd c510 833c ff4b 1abd
-0.051939163 0.06800819 -0.0012306741 0.01515793 -0.07423498 0.0808039 -0.0747213 0.06275101
0.02371635 -0.07885537 -0.0045261155 -0.04071564 -0.15732102 0.27686372 -0.09055381 0.03415718
0.051530786 -0.13616642 0.047819298 -0.00069495785 -0.02393925 -0.05064292 -0.008834814 0.006304774
-2.4521218e-12 -8.027819e-12 -1.5213217e-14 -0.107457705 -0.08019233 -0.013034014 -0.021568393 0.0071332245
-0.05378617 -0.087763004 -0.005510651 0.01580191 -0.054542534 -0.012421177 0.06531453 -0.05174395
-0.19294497 -0.04367943 0.021014564 -0.000118950156 0.06622727 -0.02869535 0.11374675 0.015099497
-0.050619494 -0.08575737 -0.10460993 -0.08357701 -0.07962765 0.05627053 -0.025392033 0.0017915382
-0.019332435 -0.14346415 -0.15128349 0.28777754 -0.024107724 0.02504417 -0.0531313 0.041073173
-0.047759205 -0.034031685 -0.04227425 0.034241565 0.11842574 0.044313263 0.0581617 -0.071759574
-0.007836696 0.09853185 0.11538502 0.04789555 -0.14598595 -0.008209634 0.011347804 -0.056058202
-0.071345285 0.08845647 -0.078363724 -0.18115942 -0.07103731 0.009339946 -0.033827662 -0.053030543
0.06745841 0.04179607 0.018280478 0.0038315533 0.03875558 -0.034342065 0.016049214 -0.03702359
0.0053642057 -0.04897064 -0.10610737 -0.035863366 -0.059077285 -0.03607196 0.03158581 0.062140293
-0.013595954 -0.058448646 0.10232479 0.06430786 -0.13647379 -0.14658605 0.06640229 -0.0451236
0.025410607 -0.07172239 0.032171205 0.0072535677 -0.04344303 0.09952508 0.11176992 0.0875663
-2.2307405e-14 -1.0950964e-10 -1.3274214e-11 -0.024402918 -0.07781071 -0.043113943 0.0050003263 0.10157943
-0.07687421 0.019765513 0.010928362 -0.1127749 -0.00060796377 -0.02702764 0.009050838 -0.12694317
-0.1280793 -0.10287751 -0.14433351 0.02413703 0.033927854 0.04230768 -0.13118666 -0.024103278
-0.03138637 0.040941678 -0.016209278 -0.006520706 0.009800231 -0.01854149 0.02662225 -0.06905351
0.041265503 -0.01903101 0.010457486 0.07177769 0.09509097 0.051542904 0.00031920878 0.003825124
-0.013832086 -0.13169597 -0.14174663 -0.11050914 -0.06895996 -0.051031437 -0.02300058 0.0093844645
-0.010043369 -0.1283368 -0.04826852 -0.087752305 0.06011289 0.08655008 -0.044610888 0.0056795496
-0.060326934 0.030377071 -0.0037623197 -0.06508759 -0.028993733 -0.026631627 0.105774686 -0.039422538
-0.064821534 -0.13351636 -0.06893338 -0.02199825 0.056739856 0.12531066 -0.066054106 0.1078813
0.04418903 -0.05295485 -0.044378087 -0.039793935 0.062470675 0.05285365 0.04285583 0.037400838
0.0526407 -0.12214333 -0.0955972 -0.06733645 0.096152075 -0.081618756 -0.10355205 0.012084377
-0.10619951 -0.010233392 -0.0053118872 -0.008024368 0.05343297 0.025412306 -0.042779196 0.0057971305
-2.2282685e-10 3.35103e-08 1.0074963e-06 0.02493027 -0.0015486247 -0.026592284 0.04307426 -0.033346903
0.016725829 0.009791352 -0.055440098 0.09551935 -0.03761388 -0.105292305 -0.0006199832 -0.09720569
-0.27002746 -0.20656003 -0.043404557 0.03220448 0.067056455 -0.0013132718 0.14493324 0.027684813
-0.14936109 -0.14999233 -0.04833994 -0.019473894 -0.05189821 -0.026712105 -0.010586889 -0.068003625
-0.015384576 0.15850708 0.07962888 -0.038598582 -0.0069673844 -0.065877505 0.015999207 -0.03767013

dafam.level1_1.conv1x3_2.bias f4 [32]
00000000: 3188 0838 fe8b 80b7 31a3 0f38 9a16 33b6
00000010: 09ea b037 68be 2537 3392 c6b5 9c39 8538
00000020: b498 b537 a047 da37 b6f7 6637 68f7 bb36
00000030: 2e51 f1b7 5e7b 9337 4d4f 7137 eb24 1737
00000040: 56f9 cf33 4a2d bfb8 ca4a 17b8 41c2 3a38
00000050: db7b cbb7 ffce c8b7 5c6b 1ab5 4125 6236
00000060: babd 6cb7 3409 0a38 30c1 46b7 6400 3ab7
00000070: 81ca 1538 aa7a f8b6 dc69 5bb7 8e20 a137
3.2551765e-05 -1.5323978e-05 3.424584e-05 -2.6686234e-06 2.1089816e-05 9.879099e-06 -1.4794699e-06 6.352665e-05
2.164799e-05 2.6020978e-05 1.3766743e-05 5.601836e-06 -2.8767241e-05 1.7581213e-05 1.4383183e-05 9.008897e-06
9.6845426e-08 -9.1160255e-05 -3.607086e-05 4.452677e-05 -2.425716e-05 -2.3938248e-05 -5.75257e-07 3.369831e-06
-1.411087e-05 3.2910335e-05 -1.18467e-05 -1.1086555e-05 3.5712965e-05 -7.405256e-06 -1.30780645e-05 1.9207855e-05

dafam.level1_1.in_norm2.weight f4 [32]
00000000: ef12 9b3e 8661 1e3e 8578 8f3e e65f 763e
00000010: b2cd 6a3e 153b 5c3e c716 9a3e 7d77 6c3e
00000020: 1fe4 923e 73a9 7f3e 3419 b03e 1fe2 343e
00000030: ff44 693e 2657 233e 18f9 2f3e 295f a03e
00000040: 71fb 143b 9c7a 913e b835 1c3e e2a0 943e
00000050: 0ee5 7c3e 7e8b 363e 1116 d4bc cc32 983e
00000060: cf75 5e3e be63 a03e fc4c 143e edb0 303e
00000070: 14d4 0c3e 6894 7d3e 6193 713e 3ed7 923e
0.30287883 0.1546689 0.28021637 0.2406002 0.22930029 0.21506913 0.30095503 0.23092456
0.28689668 0.24966983 0.34394228 0.17664383 0.22780226 0.15951213 0.17184865 0.313226
0.0022732879 0.28413856 0.15254867 0.29028994 0.24696752 0.1782665 -0.025889428 0.29726255
0.21724628 0.31326097 0.14482492 0.17254992 0.13752776 0.24763644 0.23591377 0.28679842

dafam.level1_1.in_norm2.bias f4 [32]
00000000: 9104 00bd efad 01be ff77 263f bcf4 8d3d
00000010: f3ba a0bd 5b56 15bd 19d3 51bd 99b9 4dbe
00000020: 153e c1bd 38c6 893e f22b 973e c615 c1bd
00000030: 4d0a f9bb c5b6 423e c38c 633e 04e0 1d3f
00000040: d649 a1be c693 893e 765b 66bc e082 e63c
00000050: fa2c 893d 7621 a2be 485b acbd 7642 d43c
00000060: 5ae2 813c 32f9 863d e094 0b3c a07a a93d
00000070: 8182 043e ca1d c3bd 3816 443e 2056 113e
-0.031254355 -0.12664007 0.6502685 0.06931445 -0.07848158 -0.036459308 -0.05122671 -0.20090331
-0.09435669 0.2690904 0.29525715 -0.09427981 -0.007600105 0.19015034 0.22221665 0.61669946
-0.31501645 0.26870555 -0.014059892 0.028138578 0.06698032 -0.31666154 -0.08415848 0.025910597
0.015855003 0.06590499 0.008519381 0.08275342 0.12940408 -0.09527166 0.19149101 0.1419301

dafam.level1_2.conv3x1_1.weight f4 [32, 32, 3, 1]
00000000: 0d73 cb3d da17 623d 0a48 273d e12d c1bc
00000010: 5c65 063d 1b25 e9bc d21d 123d 033b bd3c
00000020: 208f fd3d b72c e43c 22a7 f23c dc70 803d
00000030: 0aec f4bb 1eb1 c43c 6b1e 17bc 97dc 34bc
00000040: 9861 32bc 9a19 063d 7ebb 3cbc 67af f93d
00000050: 35ae 12bd 76b0 943d 31e2 883d 5771 15bc
00000060: 27c4 d43d 1d13 ffbb 938a b9bd 5d43 463d
00000070: 0c31 cfbd c9de 98bd 8dee 0d3e f5d8 65bd
00000080: 7872 bdbe 9af4 2a3c ba95 88bc 2a56 2b3d
00000090: 38d8 01bc adfe 203d e91d 063e 9cef a13d
000000a0: ee52 a5bd 652e cf3d f740 93bd 2bd6 8b3c
000000b0: 5ad4 f93c 4b51 8a3c aebb 61bd a1c6 77bc
000000c0: fad0 583c 36d0 073c 016a b3bc 29bd 4f3e
000000d0: f92a 41bd d6cf fabd 078a 55bb ce66 1d3d
000000e0: 0e27 713c 226f f53d 2dca 9a3c 23e3 383d
000000f0: 9fe8 82bb 829e d23c 4c9b d93d 4674 a43d
00000100: 7b2a 83bd ccc3 cbbd f136 433b 72ee 18bc
00000110: 3804 34bb d8d7 0c3e 6552 e63d 8a1c 8b3d
00000120: 19a2 88bd 5181 d1ba 4481 043e 07e8 aebd
00000130: 20c3 8ebd 03a9 8b3c 88ed 97bc c068 6fbd
00000140: 4b66 acbc 9153 ef3b 9358 b23d 9c8d a03d
00000150: 2025 50bd ddf8 493d 3eb2 ff3c 7c0e b03c
00000160: 2a31 1fbd b02a c5bc 001f 26bd 812c 40bd
00000170: 531c 183e 46e3 8abd 1f03 11be 91fa dcbd
00000180: 2ef9 65bd bd16 2bbb d386 7e3c eb4f 793d
00000190: d701 9bbc 0ac2 2c3d 166b 833e c36b 0abd
000001a0: 0993 97bd bf97 fe3d 9308 d43d 0eec 383d
000001b0: 55e8 b2bd 3f64 53bd c230 8bbd bdbb 9e3d
000001c0: 4974 1c3d c0ab b33d 79e0 5c3b f1b3 663c
000001d0: c6b8 f13b 2375 bb3c b986 a73d 4e08 513c
000001e0: 2c7f 953c 16de 77bd 54e3 e43c 9592 39bd
000001f0: 93ce 0ebd c246 e53d f695 dbbd 1368 5bba
00000200: 4fc9 c43d f73b 3f3c e38e ad3c 3013 8cbb
00000210: 377c 26bd 3bc5 f83c b1ae 4b3d b854 d83c
00000220: 11e3 923d a9c8 5339 d561 32bc 4fe3 e13a
00000230: 871b 0d3d 3b88 053d 7149 993d 518e a83d
00000240: e603 553c b230 4e3c bc31 323d 67da 6e3c
00000250: 5466 22bd d5d4 5abd 1a9f 44bc 829d 9cbc
00000260: b137 833c 738d a33c 5c8b 9cbd f2ae f8bb
00000270: 1413 d53d 5ad8 8cbd c679 bc3d 6c7c e23c
00000280: 044d d8bc da49 a93c 0b0f b6ba 6e92 58bc
00000290: 3428 d3bb 6e1b 933d 7408 023e e5fc 0a3d
000002a0: 9302 5f3d 978f 1dbd 316d 2abb 8a9d 03be
000002b0: b168 06be 62f7 723c c5ce bdbc d844 473d
000002c0: 60cf 8ebc 0b2f 9ebc 7a94 fbbc 2368 59bd
000002d0: 59f7 0abe 105e ad3d 10b8 f33d cd1e 183c
000002e0: 2682 693b ebc9 e9bc 2d1f 953d d58d 713d
000002f0: 44ef 9e3d 5569 1dbd d8a5 823d 5ac3 973d
00000300: 25d9 0600 542d 0180 df33 0600 eaba 0680
00000310: 7e3f 0080 2e2c 0700 c98f 9e2c 6739 91ae
00000320: 1107 51af 7292 150e 4db7 9485 7e77 ee84
00000330: 4ae0 0580 69a9 0580 8ee8 0400 884a 0380
00000340: c3e4 0000 2256 0700 d80c 329d 66da ac96
00000350: 53f7 7a9d 38bb 969e 4c1f 889c b813 0c9b
00000360: 5491 6ea4 390b 71a2 3e52 3da1 41c0 d1a5
00000370: 5ca8 9fa5 7163 05a5 f949 e1ac ac86 82aa
00000380: 0930 72aa 33f4 0180 fb4e 0400 d275 0300
00000390: 2254 0080 6e5d 0480 c0a4 0280 a1bd 2218
000003a0: 434b 2b95 7d87 7b93 6fb7 0580 9415 0500
000003b0: 84b1 0500 64e1 39a6 37eb 62a6 88e2 9aa6
000003c0: 4e08 0c80 76ed 0100 9255 0080 64ed 15a8
000003d0: 401a 89a7 af84 74a5 ffdd 0680 2fca 0600
000003e0: df4e 0100 d692 5915 ca9c 9216 57ba 7a19
000003f0: bbda cea1 3cff 30a2 660d 4ea2 678f c78a
0.099340536 0.055198528 0.040840186 -0.023581447 0.032811508 -0.028460076 0.03567297 0.023099428
0.123808146 0.027853353 0.02962071 0.06271526 -0.007474427 0.024010237 -0.009223561 -0.011038921
-0.010887526 0.03273926 -0.011519311 0.121916585 -0.035810668 0.0726022 0.066837676 -0.009121261
0.103889756 -0.007784261 -0.09059634 0.048404086 -0.10116777 -0.07464368 0.13860531 -0.05611511
-0.37001395 0.010434294 -0.016672958 0.04183022 -0.007925086 0.039305378 0.13097347 0.0790703
-0.08072458 0.10116271 -0.071901254 0.017069897 0.030496765 0.016884467 -0.055110626 -0.01512304
0.013233418 0.008289387 -0.021901133 0.20287003 -0.047160123 -0.12246673 -0.0032583491 0.03842812
0.014718784 0.119840875 0.018895233 0.04513849 -0.0039950158 0.025710348 0.10625324 0.0802999
-0.06404587 -0.09949455 0.0029787386 -0.009334194 -0.0027468335 0.13754213 0.11246184 0.06792553
-0.06671543 -0.0015983974 0.12939936 -0.085403495 -0.06970811 0.017048365 -0.01854588 -0.058449507
-0.02104487 0.007303663 0.087083004 0.0783951 -0.050816655 0.0493096 0.031212922 0.021491282
-0.038865246 -0.024068207 -0.040556908 -0.046917442 0.14854555 -0.0678163 -0.14161347 -0.10789979
-0.05614584 -0.0026106082 0.015535074 0.06086723 -0.018921776 0.042177238 0.25667638 -0.033794176
-0.074010916 0.12431287 0.10353198 0.045146994 -0.0873572 -0.051609274 -0.06796409 0.07750652
0.038196836 0.08772993 0.0033703132 0.014080987 0.007376763 0.022883004 0.08179993 0.012758328
0.018249117 -0.060514532 0.02794043 -0.045305807 -0.034864973 0.111951366 -0.10721962 -0.0008369695
0.09608709 0.011672012 0.021186298 -0.0042747483 -0.040645804 0.030367484 0.049727146 0.026407585
0.07172216 0.0002019728 -0.010887583 0.0017233881 0.03445008 0.032600623 0.07484711 0.0823027
0.013001418 0.012584852 0.04350446 0.014578438 -0.03964837 -0.05342563 -0.012000823 -0.019118074
0.016017767 0.01996491 -0.07643768 -0.0075892145 0.104040295 -0.06877203 0.09202914 0.02764722
-0.026403911 0.020665098 -0.0013889981 -0.013218505 -0.0064440016 0.07182966 0.12698537 0.033932585
0.054445814 -0.038467016 -0.0026005025 -0.12853065 -0.13125874 0.0148294885 -0.023169884 0.04864964
-0.017432868 -0.019309541 -0.030710448 -0.05307783 -0.13570918 0.084652066 0.119003415 0.009284687
0.0035630553 -0.028538665 0.07281337 0.058973152 0.0776048 -0.03843053 0.063792884 0.07410307
6.2891e-40 -1.08096e-40 5.69621e-40 -6.18065e-40 -2.2777e-41 6.58697e-40 4.5065934e-12 -6.604033e-11
-1.901095e-10 1.8436179e-30 -1.3985187e-35 -5.6063267e-36 -5.39637e-40 -5.1995e-40 4.50767e-40 -3.02243e-40
8.2064e-41 6.73747e-40 -2.3564744e-21 -2.7925927e-25 -3.3215088e-21 -1.59593e-20 -9.007815e-22 -1.15869e-22
-5.173112e-17 -3.2667532e-18 -6.414454e-19 -3.6385997e-16 -2.7696188e-16 -1.1569603e-16 -6.4030972e-12 -2.3186086e-13
-2.1510583e-13 -1.79438e-40 3.95675e-40 3.17772e-40 -3.0181e-41 -4.00858e-40 -2.42772e-40 2.1033747e-24
-3.4592546e-26 -3.1747455e-27 -5.24981e-40 4.66918e-40 5.22858e-40 -6.449023e-16 -7.8728277e-16 -1.0747298e-15
-1.105005e-39 1.7702e-40 -3.0697e-41 -8.322637e-15 -3.80536e-15 -2.1208581e-16 -6.3065e-40 6.23543e-40
1.20129e-40 4.3938634e-26 2.368652e-25 1.2962328e-23 -1.4017e-18 -2.3987568e-18 -2.79253e-18 -1.9216945e-32

dafam.level1_2.conv3x1_1.bias f4 [32]
00000000: 95eb 083d 3b22 403b 7484 d3ae 08c5 0fbd
00000010: bcdb 013d a971 7ab0 3caf 97bb 09a5 abbd
00000020: a9c4 d83c 1686 8d3d 5538 c697 befa fb3b
00000030: b050 99b4 be0b acbd 016b 33bd ec45 8fa6
00000040: 7762 b6b9 2c1f 8096 0a8a 6c92 4fb8 4a3e
00000050: 8866 fdbc 3b4c 0dbd 800d 3eba 2e37 a53c
00000060: 8eaa 5d3d 1226 943b 105e 823d fd15 82bc
00000070: 83a7 9eac 1884 863c 560b aaac 9086 f8bb
0.033427794 0.0029317278 -9.6186975e-11 -0.035100013 0.031703696 -9.111099e-10 -0.004629044 -0.08381087
0.026460962 0.069103405 -1.280967e-24 0.007689803 -2.855718e-07 -0.08400677 -0.04380322 -9.941571e-16
-0.00034787107 -2.0699188e-25 -7.4638616e-28 0.1979687 -0.03093268 -0.034496527 -0.00072499365 0.020167913
0.05411773 0.00452114 0.06365597 -0.015879625 -4.5092276e-12 0.01642041 -4.832949e-12 -0.0075844005
